…
    "        verbose = model.load_state_dict(\n",
    "            torch.hub.load_state_dict_from_url(pretrained_url, progress=progress)\n",
    "        )\n",
    "        print(verbose)\n",
    "    return model"
   ]
  },
  {
   "cell_type": "code",
   "execution_count": 29,
   "metadata": {},
   "outputs": [
    {
     "name": "stdout",
     "output_type": "stream",
     "text": [
      "<All keys matched successfully>\n"
     ]
    },
    {
     "data": {
      "text/plain": [
       "BaselineModel(\n",
       "  (image_encoder): VisionTransformer(\n",
       "    (patch_embed): PatchEmbed(\n",
       "      (proj): Conv2d(3, 384, kernel_size=(16, 16), stride=(16, 16))\n",
       "      (norm): Identity()\n",
       "    )\n",
       "    (pos_drop): Dropout(p=0.0, inplace=False)\n",
       "    (patch_drop): Identity()\n",
       "    (norm_pre): Identity()\n",
       "    (blocks): Sequential(\n",
       "      (0): Block(\n",
       "        (norm1): LayerNorm((384,), eps=1e-06, elementwise_affine=True)\n",
       "        (attn): Attention(\n",
       "          (qkv): Linear(in_features=384, out_features=1152, bias=True)\n",
       "          (q_norm): Identity()\n",
       "          (k_norm): Identity()\n",
       "          (attn_drop): Dropout(p=0.0, inplace=False)\n",
       "          (proj): Linear(in_features=384, out_features=384, bias=True)\n",
       "          (proj_drop): Dropout(p=0.0, inplace=False)\n",
       "        )\n",
       "        (ls1): Identity()\n",
       "        (drop_path1): Identity()\n",
       "        (norm2): LayerNorm((384,), eps=1e-06, elementwise_affine=True)\n",
       "        (mlp): Mlp(\n",
       "          (fc1): Linear(in_features=384, out_features=1536, bias=True)\n",
       "          (act): GELU(approximate='none')\n",
       "          (drop1): Dropout(p=0.0, inplace=False)\n",
       "          (norm): Identity()\n",
       "          (fc2): Linear(in_features=1536, out_features=384, bias=True)\n",
       "          (drop2): Dropout(p=0.0, inplace=False)\n",
       "        )\n",
       "        (ls2): Identity()\n",
       "        (drop_path2): Identity()\n",
       "      )\n",
       "      (1): Block(\n",
       "        (norm1): LayerNorm((384,), eps=1e-06, elementwise_affine=True)\n",
       "        (attn): Attention(\n",
       "          (qkv): Linear(in_features=384, out_features=1152, bias=True)\n",
       "          (q_norm): Identity()\n",
       "          (k_norm): Identity()\n",
       "          (attn_drop): Dropout(p=0.0, inplace=False)\n",
       "          (proj): Linear(in_features=384, out_features=384, bias=True)\n",
       "          (proj_drop): Dropout(p=0.0, inplace=False)\n",
       "        )\n",
       "        (ls1): Identity()\n",
       "        (drop_path1): Identity()\n",
       "        (norm2): LayerNorm((384,), eps=1e-06, elementwise_affine=True)\n",
       "        (mlp): Mlp(\n",
       "          (fc1): Linear(in_features=384, out_features=1536, bias=True)\n",
       "          (act): GELU(approximate='none')\n",
       "          (drop1): Dropout(p=0.0, inplace=False)\n",
       "          (norm): Identity()\n",
       "          (fc2): Linear(in_features=1536, out_features=384, bias=True)\n",
       "          (drop2): Dropout(p=0.0, inplace=False)\n",
       "        )\n",
       "        (ls2): Identity()\n",
       "        (drop_path2): Identity()\n",
       "      )\n",
       "      (2): Block(\n",
       "        (norm1): LayerNorm((384,), eps=1e-06, elementwise_affine=True)\n",
       "        (attn): Attention(\n",
       "          (qkv): Linear(in_features=384, out_features=1152, bias=True)\n",
       "          (q_norm): Identity()\n",
       "          (k_norm): Identity()\n",
       "          (attn_drop): Dropout(p=0.0, inplace=False)\n",
       "          (proj): Linear(in_features=384, out_features=384, bias=True)\n",
       "          (proj_drop): Dropout(p=0.0, inplace=False)\n",
       "        )\n",
       "        (ls1): Identity()\n",
       "        (drop_path1): Identity()\n",
       "        (norm2): LayerNorm((384,), eps=1e-06, elementwise_affine=True)\n",
       "        (mlp): Mlp(\n",
       "          (fc1): Linear(in_features=384, out_features=1536, bias=True)\n",
       "          (act): GELU(approximate='none')\n",
       "          (drop1): Dropout(p=0.0, inplace=False)\n",
       "          (norm): Identity()\n",
       "          (fc2): Linear(in_features=1536, out_features=384, bias=True)\n",
       "          (drop2): Dropout(p=0.0, inplace=False)\n",
       "        )\n",
       "        (ls2): Identity()\n",
       "        (drop_path2): Identity()\n",
       "      )\n",
       "      (3): Block(\n",
       "        (norm1): LayerNorm((384,), eps=1e-06, elementwise_affine=True)\n",
       "        (attn): Attention(\n",
       "          (qkv): Linear(in_features=384, out_features=1152, bias=True)\n",
       "          (q_norm): Identity()\n",
       "          (k_norm): Identity()\n",
       "          (attn_drop): Dropout(p=0.0, inplace=False)\n",
       "          (proj): Linear(in_features=384, out_features=384, bias=True)\n",
       "          (proj_drop): Dropout(p=0.0, inplace=False)\n",
       "        )\n",
       "        (ls1): Identity()\n",
       "        (drop_path1): Identity()\n",
       "        (norm2): LayerNorm((384,), eps=1e-06, elementwise_affine=True)\n",
       "        (mlp): Mlp(\n",
       "          (fc1): Linear(in_features=384, out_features=1536, bias=True)\n",
       "          (act): GELU(approximate='none')\n",
       "          (drop1): Dropout(p=0.0, inplace=False)\n",
       "          (norm): Identity()\n",
       "          (fc2): Linear(in_features=1536, out_features=384, bias=True)\n",
       "          (drop2): Dropout(p=0.0, inplace=False)\n",
       "        )\n",
       "        (ls2): Identity()\n",
       "        (drop_path2): Identity()\n",
       "      )\n",
       "      (4): Block(\n",
       "        (norm1): LayerNorm((384,), eps=1e-06, elementwise_affine=True)\n",
       "        (attn): Attention(\n",
       "          (qkv): Linear(in_features=384, out_features=1152, bias=True)\n",
       "          (q_norm): Identity()\n",
       "          (k_norm): Identity()\n",
       "          (attn_drop): Dropout(p=0.0, inplace=False)\n",
       "          (proj): Linear(in_features=384, out_features=384, bias=True)\n",
       "          (proj_drop): Dropout(p=0.0, inplace=False)\n",
       "        )\n",
       "        (ls1): Identity()\n",
       "        (drop_path1): Identity()\n",
       "        (norm2): LayerNorm((384,), eps=1e-06, elementwise_affine=True)\n",
       "        (mlp): Mlp(\n",
       "          (fc1): Linear(in_features=384, out_features=1536, bias=True)\n",
       "          (act): GELU(approximate='none')\n",
       "          (drop1): Dropout(p=0.0, inplace=False)\n",
       "          (norm): Identity()\n",
       "          (fc2): Linear(in_features=1536, out_features=384, bias=True)\n",
       "          (drop2): Dropout(p=0.0, inplace=False)\n",
       "        )\n",
       "        (ls2): Identity()\n",
       "        (drop_path2): Identity()\n",
       "      )\n",
       "      (5): Block(\n",
       "        (norm1): LayerNorm((384,), eps=1e-06, elementwise_affine=True)\n",
       "        (attn): Attention(\n",
       "          (qkv): Linear(in_features=384, out_features=1152, bias=True)\n",
       "          (q_norm): Identity()\n",
       "          (k_norm): Identity()\n",
       "          (attn_drop): Dropout(p=0.0, inplace=False)\n",
       "          (proj): Linear(in_features=384, out_features=384, bias=True)\n",
       "          (proj_drop): Dropout(p=0.0, inplace=False)\n",
       "        )\n",
       "        (ls1): Identity()\n",
       "        (drop_path1): Identity()\n",
       "        (norm2): LayerNorm((384,), eps=1e-06, elementwise_affine=True)\n",
       "        (mlp): Mlp(\n",
       "          (fc1): Linear(in_features=384, out_features=1536, bias=True)\n",
       "          (act): GELU(approximate='none')\n",
       "          (drop1): Dropout(p=0.0, inplace=False)\n",
       "          (norm): Identity()\n",
       "          (fc2): Linear(in_features=1536, out_features=384, bias=True)\n",
       "          (drop2): Dropout(p=0.0, inplace=False)\n",
       "        )\n",
       "        (ls2): Identity()\n",
       "        (drop_path2): Identity()\n",
       "      )\n",
       "      (6): Block(\n",
       "        (norm1): LayerNorm((384,), eps=1e-06, elementwise_affine=True)\n",
       "        (attn): Attention(\n",
       "          (qkv): Linear(in_features=384, out_features=1152, bias=True)\n",
       "          (q_norm): Identity()\n",
       "          (k_norm): Identity()\n",
       "          (attn_drop): Dropout(p=0.0, inplace=False)\n",
       "          (proj): Linear(in_features=384, out_features=384, bias=True)\n",
       "          (proj_drop): Dropout(p=0.0, inplace=False)\n",
       "        )\n",
       "        (ls1): Identity()\n",
       "        (drop_path1): Identity()\n",
       "        (norm2): LayerNorm((384,), eps=1e-06, elementwise_affine=True)\n",
       "        (mlp): Mlp(\n",
       "          (fc1): Linear(in_features=384, out_features=1536, bias=True)\n",
       "          (act): GELU(approximate='none')\n",
       "          (drop1): Dropout(p=0.0, inplace=False)\n",
       "          (norm): Identity()\n",
       "          (fc2): Linear(in_features=1536, out_features=384, bias=True)\n",
       "          (drop2): Dropout(p=0.0, inplace=False)\n",
       "        )\n",
       "        (ls2): Identity()\n",
       "        (drop_path2): Identity()\n",
       "      )\n",
       "      (7): Block(\n",
       "        (norm1): LayerNorm((384,), eps=1e-06, elementwise_affine=True)\n",
       "        (attn): Attention(\n",
       "          (qkv): Linear(in_features=384, out_features=1152, bias=True)\n",
       "          (q_norm): Identity()\n",
       "          (k_norm): Identity()\n",
       "          (attn_drop): Dropout(p=0.0, inplace=False)\n",
       "          (proj): Linear(in_features=384, out_features=384, bias=True)\n",
       "          (proj_drop): Dropout(p=0.0, inplace=False)\n",
       "        )\n",
       "        (ls1): Identity()\n",
       "        (drop_path1): Identity()\n",
       "        (norm2): LayerNorm((384,), eps=1e-06, elementwise_affine=True)\n",
       "        (mlp): Mlp(\n",
       "          (fc1): Linear(in_features=384, out_features=1536, bias=True)\n",
       "          (act): GELU(approximate='none')\n",
       "          (drop1): Dropout(p=0.0, inplace=False)\n",
       "          (norm): Identity()\n",
       "          (fc2): Linear(in_features=1536, out_features=384, bias=True)\n",
       "          (drop2): Dropout(p=0.0, inplace=False)\n",
       "        )\n",
       "        (ls2): Identity()\n",
       "        (drop_path2): Identity()\n",
       "      )\n",
       "      (8): Block(\n",
       "        (norm1): LayerNorm((384,), eps=1e-06, elementwise_affine=True)\n",
       "        (attn): Attention(\n",
       "          (qkv): Linear(in_features=384, out_features=1152, bias=True)\n",
       "          (q_norm): Identity()\n",
       "          (k_norm): Identity()\n",
       "          (attn_drop): Dropout(p=0.0, inplace=False)\n",
       "          (proj): Linear(in_features=384, out_features=384, bias=True)\n",
       "          (proj_drop): Dropout(p=0.0, inplace=False)\n",
       "        )\n",
       "        (ls1): Identity()\n",
       "        (drop_path1): Identity()\n",
       "        (norm2): LayerNorm((384,), eps=1e-06, elementwise_affine=True)\n",
       "        (mlp): Mlp(\n",
       "          (fc1): Linear(in_features=384, out_features=1536, bias=True)\n",
       "          (act): GELU(approximate='none')\n",
       "          (drop1): Dropout(p=0.0, inplace=False)\n",
       "          (norm): Identity()\n",
       "          (fc2): Linear(in_features=1536, out_features=384, bias=True)\n",
       "          (drop2): Dropout(p=0.0, inplace=False)\n",
       "        )\n",
       "        (ls2): Identity()\n",
       "        (drop_path2): Identity()\n",
       "      )\n",
       "      (9): Block(\n",
       "        (norm1): LayerNorm((384,), eps=1e-06, elementwise_affine=True)\n",
       "        (attn): Attention(\n",
       "          (qkv): Linear(in_features=384, out_features=1152, bias=True)\n",
       "          (q_norm): Identity()\n",
       "          (k_norm): Identity()\n",
       "          (attn_drop): Dropout(p=0.0, inplace=False)\n",
       "          (proj): Linear(in_features=384, out_features=384, bias=True)\n",
       "          (proj_drop): Dropout(p=0.0, inplace=False)\n",
       "        )\n",
       "        (ls1): Identity()\n",
       "        (drop_path1): Identity()\n",
       "        (norm2): LayerNorm((384,), eps=1e-06, elementwise_affine=True)\n",
       "        (mlp): Mlp(\n",
       "          (fc1): Linear(in_features=384, out_features=1536, bias=True)\n",
       "          (act): GELU(approximate='none')\n",
       "          (drop1): Dropout(p=0.0, inplace=False)\n",
       "          (norm): Identity()\n",
       "          (fc2): Linear(in_features=1536, out_features=384, bias=True)\n",
       "          (drop2): Dropout(p=0.0, inplace=False)\n",
       "        )\n",
       "        (ls2): Identity()\n",
       "        (drop_path2): Identity()\n",
       "      )\n",
       "      (10): Block(\n",
       "        (norm1): LayerNorm((384,), eps=1e-06, elementwise_affine=True)\n",
       "        (attn): Attention(\n",
       "          (qkv): Linear(in_features=384, out_features=1152, bias=True)\n",
       "          (q_norm): Identity()\n",
       "          (k_norm): Identity()\n",
       "          (attn_drop): Dropout(p=0.0, inplace=False)\n",
       "          (proj): Linear(in_features=384, out_features=384, bias=True)\n",
       "          (proj_drop): Dropout(p=0.0, inplace=False)\n",
       "        )\n",
       "        (ls1): Identity()\n",
       "        (drop_path1): Identity()\n",
       "        (norm2): LayerNorm((384,), eps=1e-06, elementwise_affine=True)\n",
       "        (mlp): Mlp(\n",
       "          (fc1): Linear(in_features=384, out_features=1536, bias=True)\n",
       "          (act): GELU(approximate='none')\n",
       "          (drop1): Dropout(p=0.0, inplace=False)\n",
       "          (norm): Identity()\n",
       "          (fc2): Linear(in_features=1536, out_features=384, bias=True)\n",
       "          (drop2): Dropout(p=0.0, inplace=False)\n",
       "        )\n",
       "        (ls2): Identity()\n",
       "        (drop_path2): Identity()\n",
       "      )\n",
       "      (11): Block(\n",
       "        (norm1): LayerNorm((384,), eps=1e-06, elementwise_affine=True)\n",
       "        (attn): Attention(\n",
       "          (qkv): Linear(in_features=384, out_features=1152, bias=True)\n",
       "          (q_norm): Identity()\n",
       "          (k_norm): Identity()\n",
       "          (attn_drop): Dropout(p=0.0, inplace=False)\n",
       "          (proj): Linear(in_features=384, out_features=384, bias=True)\n",
       "          (proj_drop): Dropout(p=0.0, inplace=False)\n",
       "        )\n",
       "        (ls1): Identity()\n",
       "        (drop_path1): Identity()\n",
       "        (norm2): LayerNorm((384,), eps=1e-06, elementwise_affine=True)\n",
       "        (mlp): Mlp(\n",
       "          (fc1): Linear(in_features=384, out_features=1536, bias=True)\n",
       "          (act): GELU(approximate='none')\n",
       "          (drop1): Dropout(p=0.0, inplace=False)\n",
       "          (norm): Identity()\n",
       "          (fc2): Linear(in_features=1536, out_features=384, bias=True)\n",
       "          (drop2): Dropout(p=0.0, inplace=False)\n",
       "        )\n",
       "        (ls2): Identity()\n",
       "        (drop_path2): Identity()\n",
       "      )\n",
       "    )\n",
       "    (norm): LayerNorm((384,), eps=1e-06, elementwise_affine=True)\n",
       "    (fc_norm): Identity()\n",
       "    (head_drop): Dropout(p=0.0, inplace=False)\n",
       "    (head): Identity()\n",
       "  )\n",
       "  (image_proj): Linear(in_features=384, out_features=5, bias=True)\n",
       ")"
      ]
     },
     "execution_count": 29,
     "metadata": {},
     "output_type": "execute_result"
    }
   ],
   "source": [
    "image_processor = AutoImageProcessor.from_pretrained(\"owkin/phikon\")\n",
    "extractor = vit_small(pretrained=True, progress=False, key=\"DINO_p16\", patch_size=16)\n",
    "extractor.eval()\n",
    "\n",
…
